…
        {
          "output_type": "stream",
          "name": "stdout",
          "text": [
            "Downloading data from https://www.cs.toronto.edu/~kriz/cifar-10-python.tar.gz\n",
            "170498071/170498071 [==============================] - 15s 0us/step\n",
            "Model: \"sequential\"\n",
            "_________________________________________________________________\n",
            " Layer (type)                Output Shape              Param #   \n",
            "=================================================================\n",
            " conv2d (Conv2D)             (None, 32, 32, 32)        896       \n",
            "                                                                 \n",
            " dropout (Dropout)           (None, 32, 32, 32)        0         \n",
            "                                                                 \n",
            " conv2d_1 (Conv2D)           (None, 32, 32, 32)        9248      \n",
            "                                                                 \n",
            " max_pooling2d (MaxPooling2D  (None, 16, 16, 32)       0         \n",
            " )                                                               \n",
            "                                                                 \n",
            " conv2d_2 (Conv2D)           (None, 16, 16, 64)        18496     \n",
            "                                                                 \n",
            " dropout_1 (Dropout)         (None, 16, 16, 64)        0         \n",
            "                                                                 \n",
            " conv2d_3 (Conv2D)           (None, 16, 16, 64)        36928     \n",
            "                                                                 \n",
            " max_pooling2d_1 (MaxPooling  (None, 8, 8, 64)         0         \n",
            " 2D)                                                             \n",
            "                                                                 \n",
            " conv2d_4 (Conv2D)           (None, 8, 8, 128)         73856     \n",
            "                                                                 \n",
            " dropout_2 (Dropout)         (None, 8, 8, 128)         0         \n",
            "                                                                 \n",
            " conv2d_5 (Conv2D)           (None, 8, 8, 128)         147584    \n",
            "                                                                 \n",
            " max_pooling2d_2 (MaxPooling  (None, 4, 4, 128)        0         \n",
            " 2D)                                                             \n",
            "                                                                 \n",
            " flatten (Flatten)           (None, 2048)              0         \n",
            "                                                                 \n",
            " dropout_3 (Dropout)         (None, 2048)              0         \n",
            "                                                                 \n",
            " dense (Dense)               (None, 1024)              2098176   \n",
            "                                                                 \n",
            " dropout_4 (Dropout)         (None, 1024)              0         \n",
            "                                                                 \n",
            " dense_1 (Dense)             (None, 512)               524800    \n",
            "                                                                 \n",
            " dropout_5 (Dropout)         (None, 512)               0         \n",
            "                                                                 \n",
            " dense_2 (Dense)             (None, 10)                5130      \n",
            "                                                                 \n",
            "=================================================================\n",
            "Total params: 2,915,114\n",
            "Trainable params: 2,915,114\n",
            "Non-trainable params: 0\n",
            "_________________________________________________________________\n"
          ]
        },
…
          "base_uri": "https://localhost:8080/"
        },
        "id": "VLWkCwEPKyWB",
        "outputId": "4628ffb7-dc8f-45a3-b815-894f0db674f7"
      },
      "execution_count": null,
      "outputs": [
        {
          "output_type": "stream",
          "name": "stdout",
          "text": [
            "Model: \"sequential_4\"\n",
            "_________________________________________________________________\n",
            " Layer (type)                Output Shape              Param #   \n",
            "=================================================================\n",
            " conv2d_12 (Conv2D)          (None, 32, 32, 32)        896       \n",
            "                                                                 \n",
            " dropout_12 (Dropout)        (None, 32, 32, 32)        0         \n",
            "                                                                 \n",
            " conv2d_13 (Conv2D)          (None, 32, 32, 32)        9248      \n",
            "                                                                 \n",
            " max_pooling2d_6 (MaxPooling  (None, 16, 16, 32)       0         \n",
            " 2D)                                                             \n",
            "                                                                 \n",
            " flatten_4 (Flatten)         (None, 8192)              0         \n",
            "                                                                 \n",
            " dense_9 (Dense)             (None, 512)               4194816   \n",
            "                                                                 \n",
            " dropout_13 (Dropout)        (None, 512)               0         \n",
            "                                                                 \n",
            " dense_10 (Dense)            (None, 10)                5130      \n",
            "                                                                 \n",
            "=================================================================\n",
            "Total params: 4,210,090\n",
            "Trainable params: 4,210,090\n",
            "Non-trainable params: 0\n",
            "_________________________________________________________________\n",
            "None\n",
…
